hw1/model.ckpt (torch_old, 633 bytes, 2 tensors)

linear.weight f4 [2, 8]
0	0x3e0fb7d3	0.14034967
1	0xbd70a0da	-0.05874715
2	0x3eb1c013	0.34716853
3	0xbd93e823	-0.07222011
4	0x3bafdde2	0.0053670267
5	0x3c531f41	0.0128858695
6	0x3ea92f82	0.33044058
7	0x3dedec8b	0.116173826
8	0x3ec46bf0	0.383636
9	0x3d7eef83	0.062240135
10	0x3dab94e6	0.083780095
11	0xbda06003	-0.07830813
12	0xbc89b9a0	-0.016812146
13	0xbcedec27	-0.02904327
14	0x3e8cdf5c	0.2751416
15	0x3e1ab277	0.15107141

linear.bias f4 [2]
0	0xbe8f1670	-0.27946806
1	0xbeaeea3e	-0.34163088
